Model: "model"
_________________________________________________________________
Layer (type)                 Output Shape              Param #   
=================================================================
input_1 (InputLayer)         [(None, 32, 32, 3)]       0         
_________________________________________________________________
conv1 (QConv2D)              (None, 30, 30, 8)         224       
_________________________________________________________________
relu1 (QActivation)          (None, 30, 30, 8)         0         
_________________________________________________________________
pool1 (MaxPooling2D)         (None, 14, 14, 8)         0         
_________________________________________________________________
conv2 (QConv2D)              (None, 14, 14, 16)        3216      
_________________________________________________________________
relu2 (QActivation)          (None, 14, 14, 16)        0         
_________________________________________________________________
pool2 (MaxPooling2D)         (None, 7, 7, 16)          0         
_________________________________________________________________
conv3 (QConv2D)              (None, 7, 7, 16)          2320      
_________________________________________________________________
relu3 (QActivation)          (None, 7, 7, 16)          0         
_________________________________________________________________
conv4 (QConv2D)              (None, 7, 7, 16)          2320      
_________________________________________________________________
relu4 (QActivation)          (None, 7, 7, 16)          0         
_________________________________________________________________
conv5 (QConv2D)              (None, 7, 7, 8)           1160      
_________________________________________________________________
relu5 (QActivation)          (None, 7, 7, 8)           0         
_________________________________________________________________
pool5 (MaxPooling2D)         (None, 4, 4, 8)           0         
_________________________________________________________________
flatten (Flatten)            (None, 128)               0         
_________________________________________________________________
fc1 (QDense)                 (None, 16)                2064      
_________________________________________________________________
relu6 (QActivation)          (None, 16)                0         
_________________________________________________________________
fc2 (QDense)                 (None, 32)                544       
_________________________________________________________________
relu7 (QActivation)          (None, 32)                0         
_________________________________________________________________
output (QDense)              (None, 10)                330       
_________________________________________________________________
softmax (Activation)         (None, 10)                0         
=================================================================
Total params: 12,178
Trainable params: 12,178
Non-trainable params: 0
_________________________________________________________________

x = QConv2D(
    8,
    kernel_size=(3, 3),
    strides=(1, 1),
    padding='valid',
    name='conv1',
    kernel_quantizer=quantized_bits(6, 0, alpha=1),
    bias_quantizer=quantized_bits(6, 0, alpha=1),
…
